…
	________________________________________________________________________________________________________________________
	 Layer (type)                                         Output Shape                                    Param #           
	========================================================================================================================
	 input_1 (InputLayer)                                 [(None, 28, 28, 1)]                             0                 
	                                                                                                                        
	 data_augmentation_layer (DataAugmentationLayer)      (None, 28, 28, 1)                               0                 
	                                                                                                                        
	 conv2d (Conv2D)                                      (None, 28, 28, 8)                               80                
	                                                                                                                        
	 batch_normalization (BatchNormalization)             (None, 28, 28, 8)                               32                
	                                                                                                                        
	 conv2d_1 (Conv2D)                                    (None, 28, 28, 8)                               584               
	                                                                                                                        
	 batch_normalization_1 (BatchNormalization)           (None, 28, 28, 8)                               32                
	                                                                                                                        
	 max_pooling2d (MaxPooling2D)                         (None, 14, 14, 8)                               0                 
	                                                                                                                        
	 dropout (Dropout)                                    (None, 14, 14, 8)                               0                 
	                                                                                                                        
	 conv2d_2 (Conv2D)                                    (None, 14, 14, 16)                              1168              
	                                                                                                                        
	 batch_normalization_2 (BatchNormalization)           (None, 14, 14, 16)                              64                
	                                                                                                                        
	 conv2d_3 (Conv2D)                                    (None, 14, 14, 16)                              2320              
	                                                                                                                        
	 batch_normalization_3 (BatchNormalization)           (None, 14, 14, 16)                              64                
	                                                                                                                        
	 max_pooling2d_1 (MaxPooling2D)                       (None, 7, 7, 16)                                0                 
	                                                                                                                        
	 dropout_1 (Dropout)                                  (None, 7, 7, 16)                                0                 
	                                                                                                                        
	 conv2d_4 (Conv2D)                                    (None, 7, 7, 32)                                4640              
	                                                                                                                        
	 batch_normalization_4 (BatchNormalization)           (None, 7, 7, 32)                                128               
	                                                                                                                        
	 conv2d_5 (Conv2D)                                    (None, 7, 7, 32)                                9248              
	                                                                                                                        
	 batch_normalization_5 (BatchNormalization)           (None, 7, 7, 32)                                128               
	                                                                                                                        
	 max_pooling2d_2 (MaxPooling2D)                       (None, 3, 3, 32)                                0                 
	                                                                                                                        
	 dropout_2 (Dropout)                                  (None, 3, 3, 32)                                0                 
	                                                                                                                        
	 conv2d_6 (Conv2D)                                    (None, 3, 3, 64)                                18496             
	                                                                                                                        
	 batch_normalization_6 (BatchNormalization)           (None, 3, 3, 64)                                256               
	                                                                                                                        
	 conv2d_7 (Conv2D)                                    (None, 3, 3, 64)                                36928             
	                                                                                                                        
	 batch_normalization_7 (BatchNormalization)           (None, 3, 3, 64)                                256               
	                                                                                                                        
	 max_pooling2d_3 (MaxPooling2D)                       (None, 1, 1, 64)                                0                 
	                                                                                                                        
	 dropout_3 (Dropout)                                  (None, 1, 1, 64)                                0                 
	                                                                                                                        
	 flatten (Flatten)                                    (None, 64)                                      0                 
	                                                                                                                        
	 dense (Dense)                                        (None, 10)                                      650               
	                                                                                                                        
	========================================================================================================================
	Total params: 75,074
	Trainable params: 74,594
	Non-trainable params: 480
	________________________________________________________________________________________________________________________
…
